PS32/data.pth (torch, 697090 bytes, 12 tensors)

l1.weight f4 [128, 545]
-0.07096841 -0.044132333 0.009056109 -0.0009967784 -0.031286675 -0.014057106 0.024818147 0.07455066
0.042769685 0.022949588 -0.04345243 -0.02255191 0.067922376 -0.029247098 -0.0516402 -0.026780333
-0.027531354 0.011892751 0.054571465 0.0055459547 -0.0028527812 0.0080605075 -0.057181485 -0.071089335
0.0098740235 0.023998432 0.006408438 0.009791784 0.070687816 0.04839744 0.0056411508 0.0058119213
-0.032856945 -0.022081142 -0.03719524 0.033761263 -0.11926313 0.06572954 0.053435456 -0.03797955
0.086286806 -0.012635429 -0.02745495 -0.052586 -0.045666624 0.02994858 -0.0023933998 -0.041912403
-0.07511461 -0.022513755 -0.06999021 -0.061663326 -0.08647012 0.013485778 -0.097366594 -0.004831398
-0.0014731125 0.025009587 -0.02618668 0.008903197 0.038429286 -0.023496687 -0.030752666 -0.030413283
0.000922697 0.038214643 0.040635422 -0.011519178 -0.03897284 -0.048685737 0.008537925 -0.063651145
-0.106224746 0.06957508 -0.024999604 -0.014485243 0.023983277 0.06904705 -0.046671264 -0.02295373
0.031290535 -0.007860659 0.030622967 -0.05094788 -0.033352192 -0.0033457049 0.08455992 0.082680054
-0.056606203 -0.0038752574 0.015019853 0.019913308 0.035138648 0.034714 -0.04007072 -0.038746625
0.1326008 -0.034256935 0.013355526 -0.029735649 -0.00031802373 -0.08833624 0.020176956 0.012863391
0.008355507 -0.043864954 -0.07740819 -0.034599386 0.11704873 3.0949745e-05 -0.01867111 -0.024355201
0.006209663 -0.06716824 -0.03677085 -0.07756089 -0.040127996 0.0019272048 -0.026594765 0.101795115
-0.060639884 0.057215888 -0.026262868 0.08113534 0.05374162 -0.035699584 -0.027237792 0.09061504
0.04221685 -0.0035937626 0.19874513 0.011851853 0.060889695 -0.028768567 0.007642096 0.027426105
-0.060904652 0.0839347 -0.028756017 0.030803612 0.007400754 0.048023716 -0.07267123 -0.021850288
-0.054154273 -0.012231449 0.00080379634 0.053126782 -0.06655821 -0.021187676 0.05470632 0.031614266
-0.010624846 0.07603921 0.0010461747 0.084826775 -0.045564298 0.030067576 -0.028085308 -0.0009102741
-0.048118327 0.0099883955 0.029970983 0.10300788 -0.012440966 0.036887832 0.13281928 0.080142684
0.10616687 -0.022157004 0.08011796 0.001233118 0.10375744 -0.030166853 -0.024385527 -0.06495089
-0.10196101 0.060388725 0.011256678 -0.033655766 -0.0062634605 0.027694773 0.04887335 0.023260541
0.04522754 0.12854303 0.03883766 0.07536532 -0.06413484 0.077469386 -0.051557288 0.049380664
-0.013321351 -0.01763543 -0.01669405 -0.018194623 -0.011261622 -0.012781077 -0.055036664 -0.031044958
0.07278017 0.02455785 0.092377536 -0.00054525805 0.06197973 0.025719628 -0.040250536 0.01410478
-0.022455435 -0.07769434 -0.023041815 0.015865415 -0.036055874 0.018939076 -0.023712037 0.04327822
0.005791636 -0.042817388 0.031999607 -0.034559958 -0.014623881 -0.004082817 0.017667746 -0.097230285
0.06197222 0.049104493 -0.05819531 -0.041815054 0.053855807 -0.027119365 -0.036722716 0.081886835
-0.08910872 -0.0034749412 0.04800948 0.05174335 -0.026784964 0.101111196 0.004032556 -0.003539699
0.054510713 -0.010141071 0.045084223 0.030006394 -0.07384169 -0.06628965 0.02177332 -0.0116737755
0.004630704 0.083857276 0.0019264558 -0.028979793 -0.02989665 -0.017136749 0.043647364 -0.018583931
00000000: e357 91bd 1bc4 34bd 1360 143c 55a6 82ba
00000010: 7526 00bd c74f 66bc 6d4f cb3c 04ae 983d
00000020: 442f 2f3d c600 bc3c 2dfb 31bd c8be b8bc
00000030: e31a 8b3d 9c97 efbc ad84 53bd 6e62 dbbc
00000040: 6f89 e1bc d0d9 423c 5486 5f3d d7ba b53b
00000050: baf5 3abb 3810 043c 2237 6abd 4997 91bd
00000060: a8c6 213c 5c98 c43c e0fd d13b b86d 203c
00000070: c6c4 903d 653c 463d 67d9 b83b ee71 be3b
00000080: 0195 06bd 83e3 b4bc 095a 18bd 4049 0a3d
00000090: 3a40 f4bd 369d 863d 23df 5a3d 7290 1bbd
000000a0: 23b7 b03d d504 4fbc 34e9 e0bc 6b64 57bd
000000b0: ed0c 3bbd b956 f53c 96da 1cbb 57ac 2bbd
000000c0: b0d5 99bd c46e b8bc 0757 8fbd af92 7cbd
000000d0: 3f17 b1bd 74f3 5c3c 2368 c7bd b450 9ebb
000000e0: 7415 c1ba e8e0 cc3c 7385 d6bc b7de 113c
000000f0: 0768 1d3d 207c c0bc 04ed fbbc 4725 f9bc
00000100: 26e1 713a f586 1c3d 5471 263d efba 3cbc
00000110: fca1 1fbd b26a 47bd a7e2 0b3c 885b 82bd
00000120: 5c8c d9bd 617d 8e3d f8cb ccbc 8353 6dbc
00000130: 9478 c43c 8a68 8d3d 5e2a 3fbd 7609 bcbc
00000140: 812a 003d fec9 00bc 04dd fa3c b9ae 50bd
00000150: 4f9c 08bd 9d43 5bbb c02d ad3d 2954 a93d
00000160: e8db 67bd 08f8 7dbb d415 763c 3c21 a33c
00000170: 8bed 0f3d 4430 0e3d 3221 24bd c8b4 1ebd
00000180: 81c8 073e 0051 0cbd 23d1 5a3c 2d98 f3bc
00000190: 6cbc a6b9 a1e9 b4bd 254a a53c f9c0 523c
000001a0: 89e5 083c bdab 33bd 2f88 9ebd 16b8 0dbd
000001b0: 3fb7 ef3d 09d0 0138 28f4 98bc 8f84 c7bc
000001c0: 6e7a cb3b 818f 89bd 089d 16bd 3ed8 9ebd
000001d0: 415d 24bd 439a fc3a 44dd d9bc f579 d03d
000001e0: 8761 78bd 355b 6a3d 3a25 d7bc 492a a63d
000001f0: 2c20 5c3d ba39 12bd ca21 dfbc 6194 b93d
00000200: 93eb 2c3d 5585 6bbb d883 4b3e 462e 423c
00000210: 7967 793d 0fac ebbc 8c6a fa3b b6ac e03c
00000220: 2877 79bd f5e5 ab3d bd91 ebbc db57 fc3c
00000230: 0682 f23b 84b4 443d a7d4 94bd 60ff b2bc
00000240: dfd0 5dbd 6a66 48bc dcb5 523a 789b 593d
00000250: ac4f 88bd c791 adbc bc13 603d f67d 013d
00000260: d613 2ebc 72ba 9b3d cc1f 893a a9b9 ad3d
00000270: a1a1 3abd 4750 f63c 2913 e6bc 769f 6eba
00000280: b917 45bd 5ea6 233c b585 f53c ccf5 d23d
00000290: 32d5 4bbc b217 173d c701 083e d921 a43d
000002a0: 046e d93d 9b82 b5bc e314 a43d 93a0 a13a
000002b0: c87e d43d 7a20 f7bc 28c4 c7bc f904 85bd
000002c0: efd0 d0bd 2b5a 773d ee6d 383c a1da 09bd
000002d0: b73d cdbb 26e0 e23c 6c2f 483d e48c be3c
000002e0: 8340 393d c9a0 033e 3d14 1f3d 2259 9a3d
000002f0: 2159 83bd 45a8 9e3d bc2d 53bd 6143 4a3d
00000300: cc41 5abc 2d78 90bc f6c1 88bc e40c 95bc
00000310: ab82 38bc b967 51bc 206e 61bd ff51 febc
00000320: c50d 953d 8b2d c93c 6f30 bd3d a6ef 0eba
00000330: 75de 7d3d f8b1 d23c bfdd 24bd bc17 673c
00000340: 76f4 b7bc 361e 9fbd 30c2 bcbc 30f8 813c
00000350: 53af 13bd 1f26 9b3c bf3f c2bc 8144 313d
00000360: c4c7 bd3b 4961 2fbd 0512 033d be8e 0dbd
00000370: 0199 6fbc 27c9 85bb f3bb 903c ac20 c7bd
00000380: 95d6 7d3d cb21 493d 355e 6ebd 4346 2bbd
00000390: e897 5c3d 6e29 debc 8f6a 16bd 49b4 a73d
000003a0: a27e b6bd d7bb 63bb 97a5 443d d6f0 533d
000003b0: 246c dbbc 6313 cf3d 8823 843b 4bfa 67bb
000003c0: a046 5f3d bc26 26bc 3caa 383d f8cf f53c
000003d0: 503a 97bd dec2 87bd f65d b23c 5d43 3fbc
000003e0: 29bd 973b 5dbd ab3d 2181 fc3a 0867 edbc
000003f0: d2e9 f4bc 5e62 8cbc 94c7 323d 543d 98bc

l1.bias f4 [128]
0.020446679 0.05324813 0.026378462 0.05079615 0.1352378 0.030071488 0.08743522 0.07786187
0.059540953 0.012643317 0.12861226 0.1289988 0.07779844 0.020816473 0.12618904 0.061265867
0.06877044 0.06714653 0.11697042 0.075650215 0.0325936 0.14229362 0.10630931 0.061952643
0.03811228 0.09163113 0.04088532 0.065158606 0.12104594 -0.009207924 0.09832576 0.074040666
0.111380905 0.05341851 0.06801957 0.07371866 0.13193996 0.052677568 0.07020346 0.020424604
0.027903387 0.072095424 0.013270324 0.038070545 0.024757728 0.02931374 0.017067438 0.05625205
0.10143894 0.13737814 0.047926027 0.083409116 0.07642881 0.12602422 0.0333581 0.030118577
0.08505926 0.07687378 0.06329644 0.08653177 0.022755839 0.017881308 0.07386397 0.068205856
0.032762397 0.019526409 0.09237374 0.076323934 0.06725329 0.06940068 0.18908131 0.1316129
0.044585988 0.05675795 0.08319677 0.13662744 0.11079214 0.085302845 -0.001384869 0.07738649
0.05762234 0.03856249 0.11847927 0.0783931 0.104785785 0.0035127671 0.11935455 0.10712037
0.045591544 0.116207875 0.060649972 0.069750704 0.031641632 0.09592332 0.027399443 0.053072598
-0.0054609454 0.09412194 0.087210506 0.06616212 0.06963954 0.100580804 0.074098535 0.08242303
0.015294049 0.048535805 0.0760891 0.030247638 0.016530102 0.064861394 0.080444135 0.17166378
0.053381294 0.04454937 0.082270734 0.033165254 0.068379134 0.046378493 0.0036978722 0.07608853
0.04137624 0.060772695 0.024018241 0.05263932 0.055613007 0.1409432 0.048745375 0.0732301
00000000: cb7f a73c b61a 5a3d a517 d83c a00f 503d
00000010: c77b 0a3e 7b58 f63c 3d11 b33d 0b76 9f3d
00000020: 37e1 733d ea25 4f3c efb2 033e 4318 043e
00000030: ca54 9f3d 4f87 aa3c b337 013e ebf1 7a3d
00000040: 84d7 8c3d 1f84 893d 308e ef3d 80ee 9a3d
00000050: de80 053d 6bb5 113e b2b8 d93d 0ec2 7d3d
00000060: 9f1b 1c3d 1aa9 bb3d 5e77 273d e071 853d
00000070: efe6 f73d d5dc 16bc 045f c93d a2a2 973d
00000080: ac1b e43d 5ecd 5a3d d84d 8b3d cff9 963d
00000090: 451b 073e 6fc4 573d d5c6 8f3d 8051 a73c
000000a0: a595 e43c c4a6 933d c66b 593c dcef 1b3d
000000b0: b8d0 ca3c 5e23 f03c 03d1 8b3c 8d68 663d
000000c0: 38bf cf3d dbac 0c3e 154e 443d 66d2 aa3d
000000d0: b586 9c3d 7e0c 013e 81a2 083d 3cbb f63c
000000e0: 8d33 ae3d 0070 9d3d 90a1 813d 9237 b13d
000000f0: 746a ba3c d27b 923c fe45 973d 83af 8b3d
00000100: dd31 063d d9f5 9f3c 722e bd3d b94f 9c3d
00000110: 18bc 893d f221 8e3d 889e 413e 88c5 063e
00000120: cc9f 363d 067b 683d 1163 aa3d 10e8 0b3e
00000130: fde6 e23d 42b3 ae3d 7e84 b5ba cf7c 9e3d
00000140: 6705 6c3d b4f3 1d3d 42a5 f23d 908c a03d
00000150: ee99 d63d 7436 663b 2970 f43d ed61 db3d
00000160: 33be 3a3d 65fe ed3d 1b6c 783d 75d9 8e3d
00000170: a89a 013d 7273 c43d cc74 e03c a762 593d
00000180: bbf1 b2bb 01c3 c03d 6c9b b23d 0180 873d
00000190: 2d9f 8e3d 4ffd cd3d f9c0 973d 68cd a83d
000001a0: e493 7a3c 7bcd 463d 9ad4 9b3d e5c9 f73c
000001b0: 236a 873c 0dd6 843d e5bf a43d a1c8 2f3e
000001c0: 58a6 5a3d 6679 363d 8f7d a83d 4ad8 073d
000001d0: 5c0a 8c3d 60f7 3d3d 0058 723b 4ed4 9b3d
000001e0: 227a 293d caec 783d e7c1 c43c 549c 573d
000001f0: 77ca 633d 6a53 103e 3ba9 473d aaf9 953d

l2.weight f4 [128, 128]
0.03832699 0.03522651 0.10612709 0.18011944 0.14566827 0.18062977 0.09464891 -0.011297894
-0.017481057 -0.12581067 0.10514589 0.20742218 0.11445063 0.21883084 0.063507214 0.07873297
0.013621915 0.03260696 0.15731175 0.0941047 0.048008516 0.0073557505 0.084531896 0.1815166
-0.1388219 0.0023504135 0.118823625 -0.02864585 0.078771055 0.030871382 0.09673371 0.13616501
0.1633594 0.103522725 0.12374352 0.1637009 -0.041813392 0.16368797 -0.045813642 0.09999446
0.17254223 0.039274406 -0.053697146 0.11446277 0.01073554 0.26959977 0.050696623 0.023730082
0.031788535 0.08241505 -0.06681139 -0.012528395 0.04673642 0.0054877764 0.08071781 -0.06412571
0.12212903 -0.0011092203 0.12814687 0.09956814 -0.0384758 -0.045393392 0.13923639 -0.015741045
0.05985422 0.1251497 -0.026645482 0.07204733 0.046778053 0.060183853 0.09926736 0.18661004
0.05088262 -0.049888834 0.12873042 -0.04229714 0.1550156 0.13679405 -0.18533298 0.04651216
0.096829526 0.0037725223 0.017985541 0.086030096 0.20543969 -0.04736696 0.09052036 0.030980257
-0.004297234 -0.014189862 0.029306335 0.08248802 0.105022244 0.12834099 -0.11388046 -0.10647272
0.05036193 -0.090676926 0.23405522 -0.09816988 0.07043531 0.09985643 0.0868193 -0.0004459301
0.03311248 0.106895305 -0.0445224 -0.09249146 0.05002691 0.12590945 0.014314242 0.16019139
0.12858938 -0.08615591 0.03159356 0.09543593 0.1088691 0.037546944 0.16016224 0.047928117
-0.060264643 0.11492102 0.14360024 0.06658252 0.0610578 -0.019667188 0.022454256 -0.022806639
0.009650635 -0.030371923 0.010906301 -0.029110601 0.0047472543 0.107730635 0.055214334 0.025951609
-0.061299693 0.00080228905 -0.026627164 0.23591428 0.0021215244 0.081314 0.18236293 0.0792444
-0.054347407 -0.07602882 0.0044457903 0.06253673 0.029877767 -0.026433593 0.23010114 0.077011585
-0.1343599 0.07545314 0.02254424 0.12493144 0.122334376 -0.17431568 0.03392003 0.24825977
0.07751507 0.19715197 0.07919447 0.12777822 0.14655733 -0.0876999 -0.0026863597 0.0696626
0.19510959 0.020002294 0.019918662 0.18820445 0.06876086 0.114473484 0.054366693 0.1731026
0.054556374 -0.010794169 -0.04971659 0.040152464 -0.015886813 0.086580336 0.117564045 -0.017687855
0.04461343 -0.055391863 0.13599299 0.16235237 -0.10036629 -0.09647135 0.16473763 -0.051451743
-0.14658329 0.099087104 0.1843173 0.15146314 0.0522115 0.13211119 -0.026016343 0.07991682
0.0663082 -0.028451806 0.13461784 -0.0882754 -0.02664077 0.20191593 -0.15774901 -0.011797099
0.10790565 0.18398926 -0.016108897 0.089896105 0.22737512 -0.08720456 0.048498802 -0.072770685
0.11308425 -0.007147356 -0.0545601 0.0876328 0.05656153 0.09923824 -0.06240394 -0.0058857147
0.11757617 0.033446986 0.09994475 0.04064946 0.08470362 0.090465136 -0.042410593 0.09103401
0.058175102 0.14730199 0.2074557 -0.08927085 -0.09166946 0.2506352 -0.02452998 0.09420037
0.103395775 0.1587197 -0.006522867 0.022649664 0.0013874655 0.15036981 -0.049640447 -0.0030248677
-0.13017076 0.11142087 -0.053115185 0.0564825 0.11758296 -0.007897792 0.031769466 -0.14996059
00000000: c3fc 1c3d ac49 103d 2959 d93d 3b71 383e
00000010: 102a 153e 03f7 383e 4ad7 c13d cd1a 39bc
00000020: 6f34 8fbc 83d4 00be ba56 d73d 7b66 543e
00000030: 1865 ea3d 3115 603e 1210 823d c03e a13d
00000040: 742e 5f3c e08e 053d 5516 213e f7b9 c03d
00000050: 94a4 443d 8208 f13b 0f1f ad3d 7ddf 393e
00000060: 5427 0ebe 6509 1a3b cd59 f33d b4aa eabc
00000070: b852 a13d fbe5 fc3c 531c c63d d76e 0b3e
00000080: b047 273e b903 d43d 3e6d fd3d 35a1 273e
00000090: 8544 2bbd d29d 273e 16a7 3bbd e5c9 cc3d
000000a0: e9ae 303e 33de 203d 8af1 5bbd 756b ea3d
000000b0: 1ee4 2f3c fb08 8a3e 43a7 4f3d 9765 c23c
000000c0: b234 023d 39c9 a83d 69d4 88bd e643 4dbc
000000d0: b06e 3f3d ced2 b33b 614f a53d 5754 83bd
000000e0: c91e fa3d 4263 91ba ef38 033e 62ea cb3d
000000f0: cd98 1dbd 6cee 39bd fc93 0e3e 5df3 80bc
00000100: b329 753d 3e27 003e a047 dabc 8d8d 933d
00000110: 589a 3f3d 5883 763d b04c cb3d b416 3f3e
00000120: 4b6a 503d 3c58 4cbd e8d1 033e c43f 2dbd
00000130: 69bc 1e3e bd13 0c3e eec7 3dbe 8983 3e3d
00000140: 8f4e c63d 6c3c 773b 6a56 933c 8c30 b03d
00000150: c85e 523e dc03 42bd bd62 b93d 4fca fd3c
00000160: d0cf 8cbb 987c 68bc d713 f03c 7bef a83d
00000170: e715 d73d d26b 033e 293a e9bd 5f0e dabd
00000180: 5048 4e3d d3b4 b9bd 2cac 6f3e 4a0d c9bd
00000190: 6340 903d 8781 cc3d 51ce b13d bacb e9b9
000001a0: f4a0 073d edeb da3d 1f5d 36bd 2a6c bdbd
000001b0: 04e9 4c3d 68ee 003e 4886 6a3c 3609 243e
000001c0: efac 033e 8272 b0bd 4068 013d ea73 c33d
000001d0: c3f6 de3d d3ca 193d 9201 243e 4650 443d
000001e0: 0fd8 76bd b65b eb3d f10b 133e 6b5c 883d
000001f0: be17 7a3d 151d a1bc fdf1 b73c fdd4 babc
00000200: b21d 1e3c 8ace f8bc 58b0 323c 5b79 eebc
00000210: db8e 9b3b e1a1 dc3d 6d28 623d 7898 d43c
00000220: 6315 7bbd b550 523a 3621 dabc 8393 713e
00000230: 4609 0b3b f487 a63d 59bd 3a3e e34a a23d
00000240: 639b 5ebd ffb4 9bbd fead 913b 4213 803d
00000250: 38c2 f43c 438b d8bc a29f 6b3e 40b8 9d3d
00000260: a495 09be 2d87 9a3d b3ae b83c 0edc ff3d
00000270: 728a fa3d cf7f 32be bbef 0a3d cf37 7e3e
00000280: 39c0 9e3d 35e2 493e b630 a23d 4bd8 023e
00000290: 2013 163e 019c b3bd a30d 30bb 44ab 8e3d
000002a0: cfca 473e dadb a33c 762c a33c abb8 403e
000002b0: 7ed2 8c3d 1371 ea3d 9caf 5e3d cf41 313e
000002c0: 8176 5f3d 07da 30bc a0a3 4bbd e976 243d
000002d0: 1025 82bc 0851 b13d 6bc5 f03d 1fe6 90bc
000002e0: 92bc 363d 94e2 62bd bf41 0b3e b33f 263e
000002f0: d78c cdbd c592 c5bd fbb0 283e 10bf 52bd
00000300: ee19 16be 2eee ca3d adbd 3c3e 2719 1b3e
00000310: badb 553d 2848 073e 3a20 d5bc 6eab a33d
00000320: 98cc 873d c313 e9bc 42d9 093e bcc9 b4bd
00000330: be3d dabc 0dc3 4e3e f588 21be 9f48 41bc
00000340: a3fd dc3d ae67 3c3e cef6 83bc 731b b83d
00000350: 06d5 683e 4e98 b2bd aea6 463d cc08 95bd
00000360: b798 e73d 5e34 eabb 697a 5fbd d378 b33d
00000370: 10ad 673d 6b3d cb3d 469b 7fbd f4dc c0bb
00000380: c6cb f03d b5ff 083d d5af cc3d 0c80 263d
00000390: 1779 ad3d c945 b93d bbb6 2dbd 0a70 ba3d
000003a0: 0449 6e3d 55d6 163e 446f 543e a3d3 b6bd
000003b0: 33bd bbbd 4253 803e 19f3 c8bc 20ec c03d
000003c0: 2ac1 d33d 6b87 223e c6bd d5bb ca8b b93c
000003d0: 9edb b53a 8bfa 193e c853 4bbd dc3c 46bb
000003e0: 7c4b 05be a030 e43d 4f8f 59bd 325a 673d
000003f0: 56cf f03d be65 01bc b320 023d 458f 19be

l2.bias f4 [128]
0.009707361 0.07723939 0.09706967 0.009653187 -0.076582074 0.13155209 0.12654048 0.013955906
0.09456051 0.07132974 -0.02081835 -0.010233573 0.07813757 0.121296056 0.020060807 -0.0016532105
-0.10500148 0.06837912 0.024267068 0.044294696 0.088176884 0.035966065 0.06112115 0.10979451
-0.07443823 0.11311019 0.09587727 0.06957155 -0.090786554 -0.0023153187 0.12960635 0.011103353
-0.07050022 0.13181707 0.10464059 0.073510826 -0.09321565 0.058861744 -0.02564495 0.002618275
-0.08424988 0.15564294 -0.04251003 0.09711099 0.12994254 -0.027380966 0.07700568 0.05731426
0.043494165 -0.022493226 0.010649913 0.08396662 -0.068736725 0.13326205 0.07843357 0.063487716
0.001681326 0.12325812 0.008017088 0.050584048 0.04843335 0.08813963 0.010312196 0.0580606
-0.0579157 0.002233241 0.07805202 -0.09012348 -0.111037776 0.07379949 0.062385857 0.061776355
-0.032723036 0.08097543 0.112319484 0.039733775 -0.04110877 0.037630122 0.079640515 0.08378049
0.12994948 -0.031239273 -0.07261753 0.0368265 0.116351426 0.08140706 -0.008597476 0.0023529448
-0.017799685 -0.06779838 0.039545383 -0.0056501376 0.061210282 0.082577914 0.14043447 0.17886028
-0.051356338 0.06841384 0.020197313 0.08729767 0.039924372 0.008901999 0.15664925 0.1161851
0.079282686 0.028864024 0.058419045 -0.0024317675 0.051039748 -0.02709464 -0.11679856 0.12828246
0.06086423 0.07823725 0.075104706 0.0908696 -0.09436402 0.1795573 0.01577822 0.10197276
0.037462514 0.15202044 0.034357578 0.059546623 -0.0810303 0.05542838 0.023158152 0.05478655
00000000: a00b 1f3c af2f 9e3d 77cc c63d 6728 1e3c
00000010: 10d7 9cbd 97b5 063e d493 013e 50a7 643c
00000020: f1a8 c13d 5415 923d 3f8b aabc b7aa 27bc
00000030: 9706 a03d 116a f83d 9056 a43c 8ab0 d8ba
00000040: 040b d7bd 5a0a 8c3d bbcb c63c 5b6e 353d
00000050: 1596 b43d 2751 133d 2c5a 7a3d f2db e03d
00000060: 1273 98bd 51a6 e73d 4d5b c43d 877b 8e3d
00000070: 4dee b9bd 9abc 17bb 87b7 043e d7ea 353c
00000080: 6b62 90bd 0efb 063e ce4d d63d d88c 963d
00000090: d9e7 bebd 0319 713d 5c15 d2bc 5d97 2b3b
000000a0: 338b acbd dd60 1f3e ff1e 2ebd 20e2 c63d
000000b0: a80f 053e 0c4e e0bc 27b5 9d3d 5cc2 6a3d
000000c0: f026 323d b743 b8bc f97c 2e3c b1f6 ab3d
000000d0: d7c5 8cbd d975 083e c8a1 a03d d905 823d
000000e0: f05f dc3a c16e fc3d 1b5a 033c 3831 4f3d
000000f0: 0c62 463d 8d82 b43d 7cf4 283c f4d0 6d3d
00000100: 0339 6dbd 915b 123b bdd9 9f3d a992 b8bd
00000110: c667 e3bd 3024 973d 5088 7f3d 3409 7d3d
00000120: 9708 06bd 72d6 a53d c207 e63d e2bf 223d
00000130: ab61 28bd 0b22 1a3d 911a a33d 1b95 ab3d
00000140: 7a11 053e 81e9 ffbc 80b8 94bd 62d7 163d
00000150: a849 ee3d bfb8 a63d 6edc 0cbc dd33 1a3b
00000160: a5d0 91bc e1d9 8abd 57fa 213d ca24 b9bb
00000170: a2b7 7a3d 9c1e a93d 0ece 0f3e 2627 373e
00000180: 065b 52bd 8e1c 8c3d d674 a53c 1fc9 b23d
00000190: bd87 233d b1d9 113c a968 203e 74f2 ed3d
000001a0: f65e a23d 3f74 ec3c cf48 6f3d 4a5e 1fbb
000001b0: 0e0f 513d 94f5 ddbc 1534 efbd 7a5c 033e
000001c0: c54c 793d da3a a03d 7fd0 993d d719 ba3d
000001d0: ec41 c1bd dedd 373e 5341 813c 18d7 d03d
000001e0: 4b72 193d 3fab 1b3e 88ba 0c3d 29e7 733d
000001f0: 37f3 a5bd de08 633d 2ab6 bd3c dd67 603d

l3.weight f4 [128, 128]
0.05404693 0.11850095 0.14811495 0.10712218 -0.026716946 0.06459384 0.04209698 -0.057618093
0.003924961 0.07862546 0.08633209 -0.06840238 -0.081279315 -0.14674877 0.09301355 -0.085535645
0.0021377811 0.0026418702 0.16053537 0.048054546 0.14806263 -0.13673507 0.0626151 -0.056528874
0.05197365 0.20642398 -0.08124501 0.18207091 0.0045680297 0.21808381 0.09728803 0.09410156
-0.024522522 -0.11954665 0.16492301 0.17355008 0.030695979 0.17844066 0.17467046 -0.19305669
-0.07079435 -0.095267974 -0.029841201 -0.074866526 0.051479276 0.019598734 -0.06653974 0.07200757
-0.017982328 -0.03341743 0.08133009 0.052578922 0.06307076 0.2454541 0.04332036 0.12654875
0.17456669 -0.21310595 0.050450727 0.20071976 0.14731695 -0.0867898 -0.01636863 -0.22487746
-0.070635535 0.037713923 0.16817002 -0.008702225 0.037655998 0.15538764 0.062324535 -0.0069856965
0.012246946 0.13744299 -0.14891535 0.15598024 -0.055924952 0.14030387 0.033405423 0.16637817
0.14623414 -0.057527147 -0.061736513 -0.058189567 0.18022922 0.20176002 0.073565274 0.2707859
-0.014132053 0.050928425 0.021495575 0.17582546 0.23051496 -0.18885167 0.1279808 -0.03806965
-0.029432105 -0.11145418 0.32096228 -0.08123271 0.11997147 -0.0859159 -0.2526222 -0.039138667
0.08596606 -0.11445662 -0.046748552 -0.24843223 0.11432345 0.03896255 -0.039181042 0.047925577
-0.028756365 0.04468725 -0.07781943 0.06580369 0.05338721 0.119377226 0.20962004 -0.03622973
0.09998223 -0.019945018 -0.033609446 0.3390729 0.032882422 0.115911745 0.01687628 -0.116716675
0.0429261 0.19775665 0.03203694 0.18786967 -0.021412656 0.12257685 0.011920632 -0.16081631
-0.037627775 -0.0026391237 0.019315265 -0.013983473 0.066752695 -0.0129150245 0.13208461 -0.01911577
0.060667638 -0.022270309 0.11921579 -0.006377005 0.011954369 -0.08461187 -0.008554456 0.030141613
-0.044526815 0.22889294 -0.13000596 -0.03788969 0.025580412 0.08381645 -0.0012955382 0.07748206
0.011636499 -0.041285478 0.0012977058 0.15945706 0.054730434 -0.035308536 0.15518038 -0.06410299
0.008725573 0.068409495 0.04454551 0.18745397 -0.04578791 -0.042498805 -0.019697824 -0.032710373
0.18242699 0.1132847 0.11938953 0.14020932 -0.070478 0.06679782 0.047860418 -0.0048516775
0.021332005 0.016289264 -0.11109994 0.09255231 0.054277852 -0.060802422 0.16156542 0.09067929
0.017560855 -0.027332518 -0.13279477 0.010709542 -0.007838033 -0.027309662 -0.09623974 0.017682042
0.04418057 0.06894277 0.028071275 -0.01796828 0.080820106 0.17084052 -0.029381895 0.2008719
0.15267539 0.07243503 0.038296737 -0.031787008 0.14096057 -0.07069663 0.021740358 0.10584899
0.1452159 -0.016346136 0.09133766 -0.067956954 -0.07555935 -0.03098692 0.04428141 0.07439994
0.036716126 0.03924026 -0.0004957847 0.11915989 -0.05898737 -0.08505217 -0.0543246 0.0853614
-0.031011967 0.11879453 0.06510055 -0.019801926 0.12016943 -0.055727836 -0.08066994 0.054388385
-0.03504148 0.19478112 -0.04866657 0.11255931 -0.027875427 0.07983352 0.0812056 -0.011197224
0.07437291 -0.082960024 0.026719166 0.13926637 0.06694121 0.035710316 -0.13497172 0.023940261
00000000: 5060 5d3d a0b0 f23d 72ab 173e e062 db3d
00000010: 7fdd dabc c649 843d e26d 2c3d f300 6cbd
00000020: f69c 803b 6306 a13d e1ce b03d 8c16 8cbd
00000030: c575 a6bd 4f45 16be e37d be3d 502d afbd
00000040: 041a 0c3b 3a23 2d3b 6263 243e d8d4 443d
00000050: bb9d 173e 4704 0cbe 583c 803d d28a 67bd
00000060: 52e2 543d cf60 533e c963 a6bd cc70 3a3e
00000070: 69af 953b 5d51 5f3e f23e c73d 52b8 c03d
00000080: 75e3 c8bc e0d4 f4bd 94e1 283e 1db7 313e
00000090: 2276 fb3c 26b9 363e d0dc 323e a7b0 45be
000000a0: a1fc 90bd db1b c3bd 8975 f4bc 9f53 99bd
000000b0: efdb 523d 868d a03c fd45 88bd b478 933d
000000c0: ad4f 93bc b7e0 08bd 6490 a63d ff5c 573d
000000d0: 3e2b 813d 5258 7b3e b170 313d ff95 013e
000000e0: 9cc1 323e 7238 5abe 6ca5 4e3d 7b89 4d3e
000000f0: 41da 163e dabe b1bd 8117 86bc 4746 66be
00000100: 5da9 90bd ea79 1a3d c334 2c3e c793 0ebc
00000110: 2d3d 1a3d f01d 1f3e 0348 7f3d 45e8 e4bb
00000120: 6aa7 483c dbbd 0c3e 447d 18be 49b9 1f3e
00000130: 9011 65bd d1ab 0f3e 20d4 083d 0a5f 2a3e
00000140: 67be 153e 96a1 6bbd 6ddf 7cbd 2f58 6ebd
00000150: 028e 383e 2e9a 4e3e 64a9 963d 73a4 8a3e
00000160: 208a 67bc 539a 503d 7d17 b03c 970b 343e
00000170: 1d0c 6c3e 5562 41be 660d 033e ecee 1bbd
00000180: 991b f1bc 1742 e4bd 2b55 a43e 565d a6bd
00000190: 9ab3 f53d adf4 afbd b257 81be de4f 20bd
000001a0: f90e b03d 3b68 eabd 697b 3fbd 0565 7ebe
000001b0: 6a22 ea3d 3297 1f3d 4d7c 20bd 9c4d 443d
000001c0: 7892 ebbc fa09 373d cb5f 9fbd 16c4 863d
000001d0: 8cac 5a3d 0c7c f43d a3a6 563e a065 14bd
000001e0: 7cc3 cc3d bc63 a3bc 0faa 09bd f79a ad3e
000001f0: b8af 063d 2363 ed3d 2040 8a3c 2709 efbd
00000200: 47d3 2f3d b880 4a3e 2b39 033d e860 403e
00000210: 9869 afbc 9209 fb3d c14e 433c 08ad 24be
00000220: 951f 1abd 26f5 2cbb 0c3b 9e3c f01a 65bc
00000230: a3b5 883d 8a99 53bc 3041 073e ad98 9cbc
00000240: a17e 783d 3970 b6bc 6827 f43d 32f6 d0bb
00000250: 42dc 433c fd48 adbd fd27 0cbc 8beb f63c
00000260: c061 36bd e962 6a3e 4820 05be 3832 1bbd
00000270: 038e d13c f5a7 ab3d 0ccf a9ba eaae 9e3d
00000280: 04a7 3e3c f61a 29bd c817 aa3a b648 233e
00000290: 052d 603d af9f 10bd 9be7 1e3e 6e48 83bd
000002a0: b5f5 0e3c 471a 8c3d 5a75 363d eff3 3f3e
000002b0: 1b8c 3bbd 3a13 2ebd 555d a1bc 50fb 05bd
000002c0: 24ce 3a3e cf01 e83d 7f82 f43d 0893 0f3e
000002d0: c556 90bd 4ccd 883d 4909 443d d2fa 9ebb
000002e0: 75c0 ae3c 1071 853c 5e88 e3bd 118c bd3d
000002f0: 7452 5e3d f60b 79bd 6871 253e 10b6 b93d
00000300: c8db 8f3c 72e8 dfbc 5afb 07be 1377 2f3c
00000310: 186b 00bc 83b8 dfbc 5719 c5bd eed9 903c
00000320: aff6 343d de31 8d3d bbf5 e53c 3732 93bc
00000330: 0385 a53d d1f0 2e3e 4db2 f0bc 5db1 4d3e
00000340: f056 1c3e d158 943d 0add 1c3d 1833 02bd
00000350: f857 103e 65c9 90bd d618 b23c 5bc7 d83d
00000360: 7ab3 143e 55e8 85bc 3d0f bb3d 042d 8bbd
00000370: dcbe 9abd 48d8 fdbc 6c60 353d ff5e 983d
00000380: a663 163d 65ba 203d 8cf7 01ba 1a0a f43d
00000390: be9c 71bd d52f aebd 7983 5ebd f5d1 ae3d
000003a0: cf0c febc 8c4a f33d 7053 853d a637 a2bc
000003b0: 641b f63d df42 64bd 4836 a5bd 5bc6 5e3d
000003c0: a887 0fbd b474 473e 9956 47bd 7f85 e63d
000003d0: 025b e4bc c27f a33d 1f4f a63d 9074 37bc
000003e0: d350 983d f2e6 a9bd 27e2 da3c d89b 0e3e
000003f0: 7918 893d fb44 123d 0736 0abe 5e1e c43c

l3.bias f4 [128]
0.13260983 0.054714352 0.02826438 0.10028705 -0.020780679 0.05981342 -0.07435709 0.073916085
-0.014688874 0.12192961 0.105694585 0.10554336 0.11928822 0.0963178 0.08004402 0.07644843
-0.0072245537 0.11843989 -0.0378826 0.052211944 0.07282234 0.04946643 -0.095235795 -0.0068247477
0.0077226413 -0.06938006 0.049119543 0.0035251027 0.12194109 0.09325556 0.032354932 0.06720158
-0.05857124 0.06332081 0.102031425 0.06617663 -0.07215481 0.043661986 0.0042893365 0.11189451
-0.06442198 -0.07264519 0.05179728 0.005705379 -0.0108653745 1.08888635e-05 -0.049247757 0.07641989
0.031271327 0.0080133 0.019997878 -0.0042538107 0.047416892 -0.08500505 0.06665889 -0.0726495
0.07674206 0.0049893274 0.051101934 -0.059164524 -0.06442847 0.09707203 0.1271139 -0.037329942
0.125235 0.07845306 0.032013647 -0.03964259 0.090562016 -0.065861866 -0.001855008 0.09856738
-0.023630584 0.078153394 0.059022997 0.047505204 -0.025555514 0.08268983 0.07126034 -0.057263255
0.0002464236 0.12913878 -0.06852174 0.054536544 -0.0155359525 0.0077211396 0.016873283 -0.09264664
0.02920253 -0.07024812 -0.0067009465 0.05477098 0.029577019 -0.015491101 -0.03330912 0.11007698
0.07276524 0.12669492 0.0465712 0.0064435694 0.1121304 -0.04885647 -0.086497635 0.022720264
0.105738394 0.0733129 0.080122426 0.07056943 -0.012388502 0.10171341 0.019154055 0.05228293
-0.049687076 0.053189553 0.1429749 -0.042697884 0.010218528 -0.06754176 0.1114546 0.05112938
-0.056682985 -0.05180416 -0.050587624 0.06362426 -0.035552815 -0.049086142 -0.07247164 0.055715155
00000000: dfca 073e 281c 603d b38a e73c 4c63 cd3d
00000010: 3e3c aabc ebfe 743d 8848 98bd 5161 973d
00000020: 9aa9 70bc 3bb6 f93d 6776 d83d 1e27 d83d
00000030: 624d f43d 4442 c53d 1fee a33d ff90 9c3d
00000040: f3bb ecbb 9d90 f23d c92a 1bbd 31dc 553d
00000050: e123 953d 509d 4a3d fc0a c3bd 22a2 dfbb
00000060: 360e fd3b 2217 8ebd 9331 493d 6905 673b
00000070: 40bc f93d c5fc be3d 9b86 043d fba0 893d
00000080: 66e8 6fbd 57ae 813d daf5 d03d 9d87 873d
00000090: e7c5 93bd e9d6 323d 908d 8c3b f328 e53d
000000a0: acef 83bd 00c7 94bd 6229 543d 30f4 ba3b
000000b0: af04 32bc 50af 3637 04b8 49bd 0882 9c3d
000000c0: 5d16 003d 374a 033c 97d2 a33c 8d63 8bbb
000000d0: 3738 423d 2117 aebd 7584 883d 43c9 94bd
000000e0: f12a 9d3d 837d a33b 4350 513d 8056 72bd
000000f0: 13f3 83bd b3cd c63d 252a 023e 48e7 18bd
00000100: 9b3d 003e ffab a03d be20 033d 4560 22bd
00000110: 9478 b93d 96e2 86bd bd23 f3ba b2dd c93d
00000120: ed94 c1bc e30e a03d 19c2 713d d194 423d
00000130: cc59 d1bc 4959 a93d f1f0 913d e08c 6abd
00000140: 6a32 8139 f53c 043e 2055 8cbd b661 5f3d
00000150: 828a 7ebc 9d01 fd3b d739 8a3c 86bd bdbd
00000160: 253a ef3c 3fde 8fbd 9d93 dbbb 8957 603d
00000170: 814b f23c 63ce 7dbc 256f 08bd 0a70 e13d
00000180: f105 953d 50bc 013e 71c1 3e3d 9424 d33b
00000190: a0a4 e53d b91d 48bd ac25 b1bd d91f ba3c
000001a0: 5f8d d83d 1325 963d 3a17 a43d b586 903d
000001b0: 25f9 4abc 1f4f d03d f7e8 9c3c a026 563d
000001c0: ad84 4bbd 4add 593d 0368 123e fae3 2ebd
000001d0: 9d6b 273c 5653 8abd 4f42 e43d 0a6d 513d
000001e0: 6b2c 68bd 9930 54bd f834 4fbd 704d 823d
000001f0: d49f 11bd 8d0e 49bd 036c 94bd 9335 643d

l4.weight f4 [128, 128]
-0.051639073 0.013555734 0.02982674 -0.004017436 -0.042958137 0.034774102 0.0664314 0.18992169
-0.03705055 -0.0034984995 -0.16285126 -0.119072706 -0.055950597 -0.07499588 -0.11590754 0.24948344
0.047025252 -0.107153535 -0.008319189 -0.03155746 0.081606574 -0.14886388 -0.045738664 0.14129558
-0.08604967 -0.043047808 -0.10768921 0.013312929 0.01673606 0.0130150085 0.12043374 -0.13346496
-0.057834387 -0.0005313864 -0.11394105 0.0049075335 0.14594576 0.09454815 -0.014739339 0.063815214
0.05624591 -1.9656305e-05 0.038764812 -0.0028137788 -0.047558133 -0.064519934 0.009871009 -0.2150409
0.03458895 -0.068932414 0.19440915 0.023784535 0.24951108 0.053142406 -0.09874464 -0.008402757
0.24097477 -0.0037686708 0.18914737 0.020345949 0.064486526 -0.10519559 0.009101123 0.08053908
0.20558366 0.03783435 0.011941183 -0.080418676 -0.04484691 0.08087382 0.029512111 0.015197654
-0.15383135 -0.016512182 0.24582416 -0.015129867 0.09265144 0.08813803 0.043803804 0.0908729
0.16031913 -0.07322868 0.065033935 0.025276534 -0.0147793265 0.025339382 0.13669151 -0.01996957
0.17887126 -0.06201807 0.06232 0.0501267 0.06276981 0.08186579 0.1408235 -0.07534477
0.11034744 0.09818936 0.04542986 -0.15741567 0.12510057 -0.07887313 0.06439225 0.07966643
0.06548131 0.093678884 0.012952244 0.18057676 0.002708619 -0.18962565 0.079235695 -0.15202948
-0.11579978 0.07534659 0.14434113 0.0012535825 -0.019112872 -0.07938095 0.14648753 -0.014271426
-0.04040691 -0.027951624 -0.02558224 -0.15320133 0.0123402495 -0.069286674 -0.07085016 -0.022757722
-0.039425146 0.15750554 0.003896767 0.115834296 0.09296376 0.08028836 0.006072259 -0.095796436
0.0949692 -0.016786885 0.06455104 0.08401429 0.12144689 0.14223465 0.015864015 0.1407453
0.076821744 -0.021586243 0.0008208857 -0.049921248 -0.087752074 -0.0751012 -0.059538715 0.077966854
-0.12084786 -0.019304935 0.104108386 0.06742402 -0.07783693 -0.016958848 0.06942688 0.17721301
0.01776532 0.0012241481 0.112332605 -0.11709953 0.092708595 0.01613314 0.056094393 -0.114689834
0.08172921 0.085975185 0.030836847 -0.023969926 0.0728595 -0.043449506 0.10237546 -0.09010635
0.18553714 0.098230265 -0.044286717 -0.05443129 0.094740264 0.08614459 -0.040299203 0.03990946
0.15001664 -0.08267076 0.042631313 -0.046723343 -0.036154084 -0.07614916 -0.124879695 -0.06696142
-0.03669238 0.11272378 -0.0060612434 -0.07272271 -0.022748044 -0.114842184 -0.04114609 -0.13802007
0.009599635 -0.0865198 0.13667518 0.07042265 -0.054083876 -0.11514001 0.11496975 0.02448298
0.028633595 -0.08655544 -0.0630853 -0.03340217 0.09886044 0.1005234 0.061535116 0.0878102
0.0750484 0.014021075 0.13472128 -0.06633215 -0.07064718 -0.0071267784 0.07800653 0.041720524
0.016215308 0.09354416 0.026510788 0.048539344 0.03853693 0.054192364 -0.0044130543 0.12116564
0.0217541 0.17375664 -0.12578847 0.077205494 -0.06368637 0.00760876 0.079230785 0.05293112
0.12161484 0.14425015 -0.075665474 0.06562751 0.07493798 -0.03523288 0.091136694 -0.07206138
-0.051540703 0.030636264 0.04148928 -0.0044148876 -0.024810042 0.058031455 0.06341458 0.012408935
00000000: 7e83 53bd df18 5e3c 3557 f43c b2a4 83bb
00000010: dff4 2fbd 4a6f 0e3d 300d 883d d57a 423e
00000020: 51c2 17bd 1547 65bb 7bc2 26be 64dc f3bd
00000030: 742c 65bd 7197 99bd ef60 edbd 9678 7f3e
00000040: 8d9d 403d 5073 dbbd 354d 08bc 6542 01bd
00000050: 5921 a73d c66f 18be 7758 3bbd caaf 103e
00000060: cf3a b0bd e652 30bd 298c dcbd 791e 5a3c
00000070: 101a 893c e73c 553c f7a5 f63d 0aab 08be
00000080: c0e3 6cbd bd4c 0bba ed59 e9bd 60cf a03b
00000090: ce72 153e 76a2 c13d 457d 71bc 8db1 823d
000000a0: 1c62 663d 98e3 a4b7 dac7 1e3d 6067 38bb
000000b0: 51cc 42bd 0723 84bd 03ba 213c af33 5cbe
000000c0: 25ad 0d3d 702c 8dbd 3113 473e c9d7 c23c
000000d0: d57f 7f3e daab 593d a13a cabd b8ab 09bc
000000e0: 17c2 763e cefb 76bb d9af 413e 8cac a63c
000000f0: 8311 843d c970 d7bd e01c 153c acf1 a43d
00000100: 8684 523e 31f8 1a3d f4a4 433c 8cb2 a4bd
00000110: 65b1 37bd 2ca1 a53d 62c3 f13c 95ff 783c
00000120: f785 1dbe 8e44 87bc 54b9 7b3e 43e3 77bc
00000130: 0ac0 bd3d b681 b43d 9e6b 333d 921b ba3d
00000140: b32a 243e ebf8 95bd 8330 853d bc10 cf3c
00000150: fd24 72bc 8994 cf3c dcf8 0b3e 3997 a3bc
00000160: 072a 373e a906 7ebd 4243 7f3d a851 4d3d
00000170: 758d 803d 40a9 a73d 0934 103e 5c4e 9abd
00000180: d7fd e13d 8117 c93d a914 3a3d 9331 21be
00000190: 5d1a 003e 3c88 a1bd 15e0 833d 2728 a33d
000001a0: 111b 863d b7da bf3d a635 543c 1de9 383e
000001b0: 1683 313b 3a2d 42be 5346 a23d 9ead 1bbe
000001c0: 6f28 edbd 504f 9a3d 29ce 133e 404f a43a
000001d0: 9992 9cbc 7b92 a2bd d400 163e b3d2 69bc
000001e0: b781 25bd cefa e4bc d991 d1bc cfe0 1cbe
000001f0: c22e 4a3c 2ce6 8dbd e419 91bd 676e babc
00000200: 437c 21bd 2249 213e e760 7f3b 883a ed3d
00000210: c963 be3d 396e a43d cdf9 c63b ec30 c4bd
00000220: 367f c23d a684 89bc 5633 843d af0f ac3d
00000230: 26b9 f83d f6a5 113e 40f5 813c 891f 103e
00000240: b854 9d3d a2d5 b0bc b530 573a 397a 4cbd
00000250: 5cb7 b3bd a8ce 99bd dede 73bd 16ad 9f3d
00000260: 157f f7bd 6225 9ebc c736 d53d 9b15 8a3d
00000270: f868 9fbd 48ed 8abc ae2f 8e3d 5477 353e
00000280: 9488 913c 9873 a03a a30e e63d e1d1 efbd
00000290: 01de bd3d a629 843c 3cc3 653d 81e2 eabd
000002a0: a561 a73d c213 b03d 8e9d fc3c 945c c4bc
000002b0: 5d37 953d 1cf8 31bd 3aaa d13d ae89 b8bd
000002c0: 73fd 3d3e f32c c93d fd65 35bd 58f3 5ebd
000002d0: 2f07 c23d 936c b03d c710 25bd 1a78 233d
000002e0: f69d 193e 4a4f a9bd 2c9e 2e3d fa60 3fbd
000002f0: 4e16 14bd 17f4 9bbd edc0 ffbd 1223 89bd
00000300: c04a 16bd badb e63d 659d c6bb a5ef 94bd
00000310: 1b5a babc 6132 ebbd cd88 28bd 2255 0dbe
00000320: ca47 1d3c 4b31 b1bd 94f4 0b3e c039 903d
00000330: 0e87 5dbd 87ce ebbd 4375 eb3d 8890 c83c
00000340: 0091 ea3c fb43 b1bd de32 81bd b7d0 08bd
00000350: 5877 ca3d 36df cd3d 3f0c 7c3d d6d5 b33d
00000360: fab2 993d a7b8 653c 60f4 093e 26d9 87bd
00000370: 78af 90bd c087 e9bb e3c1 9f3d 24e3 2a3d
00000380: f7d5 843c 1594 bf3d 272d d93c 31d1 463d
00000390: e6d8 1d3d d0f8 5d3d 629b 90bb b125 f83d
000003a0: a835 b23c 43ed 313e b1ce 00be ea1d 9e3d
000003b0: 006e 82bd e852 f93b c043 a23d 4dce 583d
000003c0: 3411 f93d 50b6 133e 80f6 9abd b767 863d
000003d0: 1579 993d 5a50 10bd e0a5 ba3d eb94 93bd
000003e0: 581c 53bd e7f8 fa3c aaf0 293d c3aa 90bb
000003f0: 6e3e cbbc 64b2 6d3d 81df 813d d94e 4b3c

l4.bias f4 [128]
0.061848465 0.10753298 0.008876248 0.09638015 0.07934907 0.082519524 -0.035487458 -0.05757213
0.0903404 0.037981447 -0.05814168 -0.03199522 0.07630339 0.10224181 -0.020780222 0.0726168
-0.034778062 -0.00083796744 0.094607085 -0.004263038 -0.0054197772 -0.0047772755 0.030822633 0.111719355
0.035859443 -0.04664773 0.13295983 -0.062367022 0.07751655 0.11615691 0.038633734 0.12412075
0.07454828 0.008524092 0.055554077 0.11015219 0.028536743 0.07780935 0.029472549 -0.0664961
0.09770645 0.12527533 0.076791696 0.048563574 -0.11227974 0.09370762 0.08136788 0.052017793
0.077403605 -0.013852591 0.103525706 -0.008419904 -0.057141177 0.07116551 -0.06183532 0.023056153
0.10662202 -0.026363106 -0.060487553 -0.06433624 -0.09458958 0.040681843 0.08303464 -0.027752036
0.12612742 -0.07223421 0.111343816 -0.04586024 0.033339594 0.08715996 -0.027909232 0.04723291
0.030501625 0.109615035 -0.06844495 0.09959012 -0.035368666 -0.07274536 -0.02829622 0.056069
0.022663357 -0.031036047 0.07973794 -0.02393131 0.008415315 0.0790946 -0.061541457 0.034711145
0.08614206 -0.027417352 0.05856401 0.07063467 0.014189973 0.02207676 0.121257916 0.08566297
0.10047131 0.0798813 0.08800083 0.05032149 0.110997446 0.12211585 0.08137638 0.053896952
0.044501696 -0.09926823 0.013751024 0.07910226 -0.015143564 -0.007837445 -0.030150998 0.08166585
-0.008754257 -0.02648521 0.09915929 0.12075142 0.0032566234 0.1371702 -0.045529965 0.13264254
-0.019626163 -0.02575049 0.038354594 -0.020638082 -0.057151444 -0.06292627 0.034464188 0.026907107
00000000: d154 7d3d 403a dc3d af6d 113c f562 c53d
00000010: c481 a23d ffff a83d 4c5b 11bd c1d0 6bbd
00000020: 6304 b93d 6f92 1b3d f825 6ebd 6b0d 03bd
00000030: f444 9c3d 2764 d13d 493b aabc 1eb8 943d
00000040: 7173 0ebd 0bab 5bba 5cc1 c13d f4b0 8bbb
00000050: 6398 b1bb b18a 9cbb bf7f fc3c 1ecd e43d
00000060: 5ae1 123d b111 3fbd 9f26 083e 9074 7fbd
00000070: ffc0 9e3d ade3 ed3d 683e 1e3d 0533 fe3d
00000080: c5ac 983d a2a8 0b3c ac8c 633d 7997 e13d
00000090: e3c5 e93c 825a 9f3d 6a70 f13c 1b2f 88bd
000000a0: 521a c83d 2d48 003e f744 9d3d 99ea 463d
000000b0: ecf2 e5bd c8e9 bf3d 34a4 a63d 9c10 553d
000000c0: c885 9e3d faf5 62bc 4905 d43d a3f3 09bc
000000d0: de0c 6abd 39bf 913d 0847 7dbd 42e0 bc3c
000000e0: a55c da3d 71f7 d7bc ccc1 77bd b8c2 83bd
000000f0: 2fb8 c1bd 01a2 263d 110e aa3d 3d58 e3bc
00000100: 8c27 013e 88ef 93bd 3a08 e43d f2d7 3bbd
00000110: 198f 083d ec80 b23d e7a1 e4bc 4c77 413d
00000120: 8bde f93c d97d e03d de2c 8cbd e8f5 cb3d
00000130: bcde 10bd 85fb 94bd 79cd e7bc 9ca8 653d
00000140: 81a8 b93c 4f3f febc a54d a33d 980b c4bc
00000150: 64e0 093c 5afc a13d e512 7cbd 462d 0e3d
00000160: 406b b03d 5b9a e0bc d1e0 6f3d e9a8 903d
00000170: 0f7d 683c 52da b43c 1256 f83d 1170 af3d
00000180: e7c3 cd3d cf98 a33d c739 b43d e81d 4e3d
00000190: a152 e33d e017 fa3d a9a8 a63d 0dc3 5c3d
000001a0: 6947 363d 244d cbbd fa4b 613c 5e00 a23d
000001b0: b61c 78bc a068 00bc 3aff f6bc 6d40 a73d
000001c0: 046e 0fbc 83f7 d8bc 0714 cb3d 854c f73d
000001d0: 136d 553b 5876 0c3e a17d 3abd 72d3 073e
000001e0: 0cc7 a0bc b1f2 d2bc b519 1d3d 3211 a9bc
000001f0: a217 6abd 7ddf 80bd 522a 0d3d 4b6c dc3c

l5.weight f4 [128, 128]
-0.18356414 0.09684841 -0.040542386 0.12857826 0.18228647 0.07962687 0.06811982 -0.043166697
-0.077710934 0.0432554 0.062914945 0.09699284 0.040427487 -0.11847451 0.002632536 0.0074053067
0.058565073 0.18203929 -0.088432975 -0.050936 -0.099539116 0.08363862 0.033418093 0.009138779
0.017141646 -0.0028886732 -0.09923385 -0.07819157 0.07639038 0.09988068 0.035857093 -0.034402512
-0.026922503 0.18227972 0.13052112 0.08276008 0.09433005 0.020573853 0.047777127 -0.094906345
0.09785731 0.12899458 -0.060405344 0.13451052 -0.06371638 -0.031031838 -0.035050333 -0.041873325
-0.012750469 0.014421558 0.02228699 -0.018234055 0.020618688 0.051022846 -0.024614206 -0.0103024915
0.007881701 -0.034391537 0.11874098 0.12679957 0.029440455 0.041483764 -0.08388879 0.003968125
0.0630727 -0.08668456 0.09321898 0.0007625818 -0.083962634 0.13411638 0.11790972 -0.066590935
0.06738217 -0.052151725 0.050405484 0.063180655 0.004008323 0.16450924 -0.015489537 -0.029046642
0.12921023 -0.011427472 -0.06305343 0.042239353 -0.13299283 0.054727264 0.008826785 0.009578403
0.03297891 0.0076954393 0.008085556 0.05109691 0.00869144 -0.059229124 0.12219206 -0.08164349
0.03593554 -0.038139187 0.10054992 -0.07956142 -0.04701473 -0.055316932 -0.011310288 -0.012758258
-0.052186765 0.009105388 0.043731812 -0.07298742 0.05517228 0.0019617695 0.10610764 -0.12352603
-0.016475186 0.05549758 0.03629813 0.11049879 0.07771713 0.051733058 0.035159983 0.044920392
0.08424369 0.08969327 0.14236823 0.050897457 -0.058834556 0.05176369 -0.016294142 0.0104793925
0.19335085 0.13595854 0.15128739 0.0031515302 -0.09324916 -0.0713633 -0.05793891 -0.027582433
0.051485576 0.11969981 -0.015993377 0.11935533 -0.111867316 0.18223104 -0.0899653 0.059608243
0.0057555367 -0.080129914 -0.07133551 -0.07655673 -0.042497024 0.048002474 -0.04931555 0.14265282
-0.10469378 0.012917116 0.09474429 -0.08447348 -0.060862944 -0.0073512523 0.046725303 0.15412025
-0.108222544 -0.016713198 0.014918089 0.07534248 -0.010509248 -0.06899397 0.056794018 0.012362109
-0.10413684 -0.057364203 0.058210064 -0.02122504 -0.061425082 -0.08927362 0.07943659 0.006607291
-0.16281453 0.031411298 0.20657529 -0.0429216 -0.0034082578 0.006946783 -0.007551849 -0.05567598
0.085783735 0.17666474 -0.06722593 -0.0039569773 0.06155149 -0.04835579 0.035422023 0.03865763
0.08269322 0.10675663 -0.12784795 -0.025971603 0.019500913 -0.04769524 -0.009084497 -0.04080598
-0.0679647 -0.07662358 0.015985249 -0.037853517 -0.023697488 -0.07988574 0.03859412 0.010869603
-0.09536114 0.030269556 0.091464564 0.07970982 -0.019198293 -0.02386032 -0.0086523965 -0.024640337
0.0008519669 0.13321301 -0.08354981 -0.06937198 0.082929544 0.14336574 -0.03910364 -0.05680588
0.19507912 0.10878673 0.019762233 -0.12814657 0.01075514 0.13332579 0.099021375 -0.048851237
0.16308516 -0.06161754 0.023302207 -0.032601368 0.030669454 0.06641718 -0.002823972 0.09114482
-0.0016033213 0.024541644 0.050106175 0.05018512 0.011033824 0.1882877 -0.08836698 -0.10484367
-0.04867203 -0.11544535 -0.08351652 -0.02813056 0.020304367 -0.009534705 0.118214086 0.16687222
00000000: 3df8 3bbe 7658 c63d c60f 26bd 05aa 033e
00000010: 4ea9 3a3e 6a13 a33d 6782 8b3d 90cf 30bd
00000020: e926 9fbd 932c 313d 8dd9 803d 2fa4 c63d
00000030: 4b97 253d c4a2 f2bd a086 2c3b 37a8 f23b
00000040: eee1 6f3d 8268 3a3e 591c b5bd 44a2 50bd
00000050: 2adb cbbd ba4a ab3d 69e1 083d d1ba 153c
00000060: a36c 8c3c e54f 3dbb 1e3b cbbd e722 a0bd
00000070: 8f72 9c3d 3e8e cc3d e3de 123d a6e9 0cbd
00000080: 958c dcbc 89a7 3a3e 54a7 053e 1e7e a93d
00000090: 1d30 c13d 7f8a a83c f3b1 433d 425e c2bd
000000a0: 6a69 c83d 2817 043e 986b 77bd 20bd 093e
000000b0: bc7d 82bd 7b36 febc f090 0fbd 5d83 2bbd
000000c0: 58e7 50bc 6648 6c3c 3593 b63c 965f 95bc
000000d0: 86e8 a83c 55fd 503d bba3 c9bc c8cb 28bc
000000e0: 4022 013c 24de 0cbd 792e f33d bfd7 013e
000000f0: 1c2d f13c e1ea 293d e3cd abbd 0c07 823b
00000100: 422c 813d ad87 b1bd 98e9 be3d 00e8 473a
00000110: 9af4 abbd ce55 093e a77a f13d d460 88bd
00000120: aaff 893d 0c9d 55bd fb75 4e3d dc64 813d
00000130: 4058 833b 1c75 283e d4c7 7dbc 39f3 edbc
00000140: b04f 043e 4b3a 3bbc 2822 81bd 2c03 2d3d
00000150: 462f 08be b229 603d 389e 103c bcee 1c3c
00000160: e514 073d 062a fc3b 4879 043c fe4a 513d
00000170: 8b66 0e3c 3d9a 72bd d53f fa3d b434 a7bd
00000180: 2531 133d d637 1cbd 1eed cd3d 19f1 a2bd
00000190: 8492 40bd 0294 62bd c94e 39bc 0308 51bc
000001a0: cac1 55bd c42e 153c 2120 333d 6e7a 95bd
000001b0: 54fc 613d 0891 003b f64e d93d 37fb fcbd
000001c0: f8f6 86bc 6e51 633d 59ad 143d 314d e23d
000001d0: 292a 9f3d 0be6 533d ea03 103d 72fe 373d
000001e0: f587 ac3d 1bb1 b73d fac8 113e da79 503d
000001f0: 81fc 70bd 2a06 543d 4b7b 85bc c2b1 2b3c
00000200: c4fd 453e b738 0b3e 15eb 1a3e e789 4e3b
00000210: 6af9 bebd ec26 92bd 5a51 6dbd 8ef4 e1bc
00000220: 8ae2 523d 2d25 f53d 8b04 83bc 9170 f43d
00000230: b11a e5bd c69a 3a3e ba3f b8bd c627 743d
00000240: f198 bc3b 271b a4bd 5a18 92bd c6c9 9cbd
00000250: 5c11 2ebd 3e9e 443d 1aff 49bd 9513 123e
00000260: b169 d6bd 50a2 533c 4b09 c23d 6f00 adbd
00000270: 6c4b 79bd c6e2 f0bb 0863 3f3d b3d1 1d3e
00000280: c8a3 ddbd 1eea 88bc 006b 743c 284d 9a3d
00000290: fb2e 2cbc b64c 8dbd d8a0 683d 718a 4a3c
000002a0: b245 d5bd baf6 6abd ad6d 6e3d 23e0 adbc
000002b0: de98 7bbd 16d5 b6bd a7af a23d f981 d83b
000002c0: dab8 26be 22a9 003d 7988 533e 8fce 2fbd
000002d0: 145d 5fbb d7a1 e33b 8075 f7bb 7f0c 64bd
000002e0: 62af af3d 9ae7 343e c0ad 89bd 88a9 81bb
000002f0: 6a1d 7c3d b910 46bd af16 113d 7757 1e3d
00000300: 105b a93d 38a3 da3d 93ea 02be 66c2 d4bc
00000310: 61c0 9f3c 155c 43bd 24d7 14bc 2c24 27bd
00000320: 1431 8bbd d3ec 9cbd 7ff3 823c 4a0c 1bbd
00000330: 3c21 c2bc 239b a3bd de14 1e3d 6b16 323c
00000340: b44c c3bd dcf7 f73c c651 bb3d e73e a33d
00000350: bd45 9dbc b876 c3bc c8c2 0dbc 88da c9bc
00000360: 8856 5f3a fe68 083e 2a1c abbd e612 8ebd
00000370: f7d6 a93d 78ce 123e 232b 20bd 48ad 68bd
00000380: d2c2 473e 94cb de3d 68e4 a13c db38 03be
00000390: 5436 303c 8e86 083e b8cb ca3d 3c18 48bd
000003a0: ccff 263e ac62 7cbd 45e4 be3c 0389 05bd
000003b0: 823e fb3c bb05 883d 6312 39bb 23aa ba3d
000003c0: 8926 d2ba 8f0b c93c 223c 4d3d ea8e 4d3d
000003d0: 36c7 343c 7ece 403e bff9 b4bd 47b8 d6bd
000003e0: 535c 47bd 9d6e ecbd b60a abbd 0f72 e6bc
000003f0: 5855 a63c 7437 1cbc 3a1a f23d 8de0 2a3e

l5.bias f4 [128]
0.07917592 0.079415314 -0.08248571 0.07187537 -0.09217578 -0.03242531 0.09556989 0.04155411
0.012001224 -0.07277309 -0.014025072 -0.05067364 -0.05631955 -0.048314184 -0.031824727 -0.042193998
-0.073018834 0.10369983 -0.06113477 -0.034092773 0.05906995 0.044414923 -0.07777479 -0.014387858
0.064679265 0.053595673 0.066475675 -0.054872185 0.09499692 -0.011073828 0.071094945 -0.065585375
0.075348124 -0.042802986 0.07407655 0.07372857 -0.023046551 0.024533749 0.026875908 0.009002847
-0.033787586 0.006175851 0.034108628 -0.06616511 -0.02676744 0.12375049 0.07595086 0.03280546
-0.0025106254 0.10289693 0.0378637 0.05514625 0.05416503 -0.028437376 -0.020267766 0.096214734
0.025485082 0.030192358 -0.0288698 -0.011861368 -0.015185303 0.09265872 0.024644487 -0.0938338
0.053439192 -0.017342687 0.06445976 -0.055799995 0.014600195 0.08846804 0.07537218 -0.042291023
-0.014428135 0.0921906 0.045695987 -0.026167981 -0.093246765 0.059485793 0.021936052 -0.042751454
0.06051385 0.02385311 0.05118737 0.02381435 0.047939125 0.08885548 0.01796715 0.04318472
0.0031429683 -0.074830644 0.06546067 -0.038548168 0.11463599 0.0309177 -0.0465584 0.06468951
0.07149849 -0.073631205 0.07385976 0.09284026 -0.014006818 0.06603005 -0.09239195 0.097896494
0.09946427 0.094785124 0.06554618 0.06540174 -0.08755852 -0.048268862 0.0028977797 0.09085227
0.021724511 -0.019750036 0.09795618 -0.07311911 0.034647208 0.00035830517 0.080721 0.09824871
0.079459265 -0.063814655 0.10117973 0.049714044 0.04837184 -0.044415038 0.052713327 0.013642977
00000000: fc26 a23d 7fa4 a23d 45ee a8bd 6533 933d
00000010: a8c6 bcbd 67d0 04bd 26ba c33d a434 2a3d
00000020: c8a0 443c 0f0a 95bd 6ac9 65bc 2a8f 4fbd
00000030: 54af 66bd 18e5 45bd a55a 02bd 9dd3 2cbd
00000040: e68a 95bd 9460 d43d 7468 7abd dda4 0bbd
00000050: 55f3 713d 6cec 353d 6448 9fbd 0dbb 6bbc
00000060: 9076 843d 2387 5b3d 6624 883d a8c1 60bd
00000070: bf8d c23d 006f 35bc 3a9a 913d a051 86bd
00000080: 1e50 9a3d 2f52 2fbd 72b5 973d 01ff 963d
00000090: 1fcc bcbc 00fb c83c dd2a dc3c ad80 133c
000000a0: da64 0abd cb5e ca3b 7db5 0b3d 9381 87bd
000000b0: 6447 dbbc e670 fd3d 208c 9b3d 055f 063d
000000c0: 4e89 24bb a0bb d23d f816 1b3d 09e1 613d
000000d0: 27dc 5d3d 80f5 e8bc 9608 a6bc 3b0c c53d
000000e0: 17c6 d03c f755 f73c 5c80 ecbc 2f56 42bc
000000f0: c7cb 78bc dbc3 bd3d 3ce3 c93c ef2b c0bd
00000100: 0ee3 5a3d 4012 8ebc 7b03 843d 898e 64bd
00000110: a835 6f3c bb2e b53d bb5c 9a3d 5a39 2dbd
00000120: fc63 6cbc 6dce bc3d b72b 3b3d 3c5e d6bc
00000130: 29f8 bebd 60a7 733d 3cb3 b33c 261c 2fbd
00000140: 5fdd 773d 9967 c33c d9a9 513d 5016 c33c
00000150: d15b 443d ddf9 b53d d82f 933c 76e2 303d
00000160: 42fa 4d3b cf40 99bd 3e10 863d afe4 1dbd
00000170: 46c6 ea3d 1e47 fd3c 05b4 3ebd ef7b 843d
00000180: cd6d 923d f5cb 96bd c943 973d 0923 be3d
00000190: da7c 65bc c33a 873d fe37 bdbd f57d c83d
000001a0: ecb3 cb3d b41e c23d 133d 863d 59f1 853d
000001b0: e251 b3bd 92b5 45bd ade8 3d3b c110 ba3d
000001c0: 9af7 b13c d4ca a1bc 409d c83d 79bf 95bd
000001d0: 3bea 0d3d e8da bb39 0d51 a53d 9f36 c93d
000001e0: 8abb a23d 42b1 82bd 5137 cf3d f4a0 4b3d
000001f0: 8d21 463d 8bec 35bd eee9 573d cb86 5f3c
